…
name : features.6.1.norm2.bias, param : torch.Size([768])
name : features.6.1.mlp.0.weight, param : torch.Size([3072, 768])
name : features.6.1.mlp.0.bias, param : torch.Size([3072])
name : features.6.1.mlp.3.weight, param : torch.Size([768, 3072])
name : features.6.1.mlp.3.bias, param : torch.Size([768])
name : norm.weight, param : torch.Size([768])
name : norm.bias, param : torch.Size([768])
Load state_dict from /home/hslee/Desktop/Embedded_AI/INU_4-1/RISE/RetinaNet-ADN/02_AdaptiveDepthNetwork/pretrained/checkpoint_swin-t-epoch297.pth
self.model (in solver.py): 
RTDETR(
  (backbone): SwinTransformer(
    (pre): Sequential(
      (0): Conv2d(3, 96, kernel_size=(4, 4), stride=(4, 4))
      (1): Permute()
      (2): LayerNorm((96,), eps=1e-05, elementwise_affine=True)
    )
    (features): SkippableSequentialStages(
      (0): SkippableSequentialBlocks(
        (0): SwinTransformerBlock(
          (norm1): LayerNorm((96,), eps=1e-05, elementwise_affine=True)
          (attn): ShiftedWindowAttention(
            (qkv): Linear(in_features=96, out_features=288, bias=True)
            (proj): Linear(in_features=96, out_features=96, bias=True)
          )
          (stochastic_depth): StochasticDepth(p=0.0, mode=row)
          (norm2): LayerNorm((96,), eps=1e-05, elementwise_affine=True)
          (mlp): MLP(
            (0): Linear(in_features=96, out_features=384, bias=True)
            (1): GELU(approximate='none')
            (2): Dropout(p=0.0, inplace=False)
            (3): Linear(in_features=384, out_features=96, bias=True)
            (4): Dropout(p=0.0, inplace=False)
          )
          (norm1_skip): LayerNorm((96,), eps=1e-05, elementwise_affine=True)
          (norm2_skip): LayerNorm((96,), eps=1e-05, elementwise_affine=True)
        )
        (1): SwinTransformerBlock(
          (norm1): LayerNorm((96,), eps=1e-05, elementwise_affine=True)
          (attn): ShiftedWindowAttention(
            (qkv): Linear(in_features=96, out_features=288, bias=True)
            (proj): Linear(in_features=96, out_features=96, bias=True)
          )
          (stochastic_depth): StochasticDepth(p=0.009090909090909092, mode=row)
          (norm2): LayerNorm((96,), eps=1e-05, elementwise_affine=True)
          (mlp): MLP(
            (0): Linear(in_features=96, out_features=384, bias=True)
            (1): GELU(approximate='none')
            (2): Dropout(p=0.0, inplace=False)
            (3): Linear(in_features=384, out_features=96, bias=True)
            (4): Dropout(p=0.0, inplace=False)
          )
        )
      )
      (1): PatchMerging(
        (reduction): Linear(in_features=384, out_features=192, bias=False)
        (norm): LayerNorm((384,), eps=1e-05, elementwise_affine=True)
        (norm_skip): LayerNorm((384,), eps=1e-05, elementwise_affine=True)
      )
      (2): SkippableSequentialBlocks(
        (0): SwinTransformerBlock(
          (norm1): LayerNorm((192,), eps=1e-05, elementwise_affine=True)
          (attn): ShiftedWindowAttention(
            (qkv): Linear(in_features=192, out_features=576, bias=True)
            (proj): Linear(in_features=192, out_features=192, bias=True)
          )
          (stochastic_depth): StochasticDepth(p=0.018181818181818184, mode=row)
          (norm2): LayerNorm((192,), eps=1e-05, elementwise_affine=True)
          (mlp): MLP(
            (0): Linear(in_features=192, out_features=768, bias=True)
            (1): GELU(approximate='none')
            (2): Dropout(p=0.0, inplace=False)
            (3): Linear(in_features=768, out_features=192, bias=True)
            (4): Dropout(p=0.0, inplace=False)
          )
          (norm1_skip): LayerNorm((192,), eps=1e-05, elementwise_affine=True)
          (norm2_skip): LayerNorm((192,), eps=1e-05, elementwise_affine=True)
        )
        (1): SwinTransformerBlock(
          (norm1): LayerNorm((192,), eps=1e-05, elementwise_affine=True)
          (attn): ShiftedWindowAttention(
            (qkv): Linear(in_features=192, out_features=576, bias=True)
            (proj): Linear(in_features=192, out_features=192, bias=True)
          )
          (stochastic_depth): StochasticDepth(p=0.02727272727272728, mode=row)
          (norm2): LayerNorm((192,), eps=1e-05, elementwise_affine=True)
          (mlp): MLP(
            (0): Linear(in_features=192, out_features=768, bias=True)
            (1): GELU(approximate='none')
            (2): Dropout(p=0.0, inplace=False)
            (3): Linear(in_features=768, out_features=192, bias=True)
            (4): Dropout(p=0.0, inplace=False)
          )
        )
      )
      (3): PatchMerging(
        (reduction): Linear(in_features=768, out_features=384, bias=False)
        (norm): LayerNorm((768,), eps=1e-05, elementwise_affine=True)
        (norm_skip): LayerNorm((768,), eps=1e-05, elementwise_affine=True)
      )
      (4): SkippableSequentialBlocks(
        (0): SwinTransformerBlock(
          (norm1): LayerNorm((384,), eps=1e-05, elementwise_affine=True)
          (attn): ShiftedWindowAttention(
            (qkv): Linear(in_features=384, out_features=1152, bias=True)
            (proj): Linear(in_features=384, out_features=384, bias=True)
          )
          (stochastic_depth): StochasticDepth(p=0.03636363636363637, mode=row)
          (norm2): LayerNorm((384,), eps=1e-05, elementwise_affine=True)
          (mlp): MLP(
            (0): Linear(in_features=384, out_features=1536, bias=True)
            (1): GELU(approximate='none')
            (2): Dropout(p=0.0, inplace=False)
            (3): Linear(in_features=1536, out_features=384, bias=True)
            (4): Dropout(p=0.0, inplace=False)
          )
          (norm1_skip): LayerNorm((384,), eps=1e-05, elementwise_affine=True)
          (norm2_skip): LayerNorm((384,), eps=1e-05, elementwise_affine=True)
        )
        (1): SwinTransformerBlock(
          (norm1): LayerNorm((384,), eps=1e-05, elementwise_affine=True)
          (attn): ShiftedWindowAttention(
            (qkv): Linear(in_features=384, out_features=1152, bias=True)
            (proj): Linear(in_features=384, out_features=384, bias=True)
          )
          (stochastic_depth): StochasticDepth(p=0.045454545454545456, mode=row)
          (norm2): LayerNorm((384,), eps=1e-05, elementwise_affine=True)
          (mlp): MLP(
            (0): Linear(in_features=384, out_features=1536, bias=True)
            (1): GELU(approximate='none')
            (2): Dropout(p=0.0, inplace=False)
            (3): Linear(in_features=1536, out_features=384, bias=True)
            (4): Dropout(p=0.0, inplace=False)
          )
          (norm1_skip): LayerNorm((384,), eps=1e-05, elementwise_affine=True)
          (norm2_skip): LayerNorm((384,), eps=1e-05, elementwise_affine=True)
        )
        (2): SwinTransformerBlock(
          (norm1): LayerNorm((384,), eps=1e-05, elementwise_affine=True)
          (attn): ShiftedWindowAttention(
            (qkv): Linear(in_features=384, out_features=1152, bias=True)
            (proj): Linear(in_features=384, out_features=384, bias=True)
          )
          (stochastic_depth): StochasticDepth(p=0.05454545454545456, mode=row)
          (norm2): LayerNorm((384,), eps=1e-05, elementwise_affine=True)
          (mlp): MLP(
            (0): Linear(in_features=384, out_features=1536, bias=True)
            (1): GELU(approximate='none')
            (2): Dropout(p=0.0, inplace=False)
            (3): Linear(in_features=1536, out_features=384, bias=True)
            (4): Dropout(p=0.0, inplace=False)
          )
          (norm1_skip): LayerNorm((384,), eps=1e-05, elementwise_affine=True)
          (norm2_skip): LayerNorm((384,), eps=1e-05, elementwise_affine=True)
        )
        (3): SwinTransformerBlock(
          (norm1): LayerNorm((384,), eps=1e-05, elementwise_affine=True)
          (attn): ShiftedWindowAttention(
            (qkv): Linear(in_features=384, out_features=1152, bias=True)
            (proj): Linear(in_features=384, out_features=384, bias=True)
          )
          (stochastic_depth): StochasticDepth(p=0.06363636363636364, mode=row)
          (norm2): LayerNorm((384,), eps=1e-05, elementwise_affine=True)
          (mlp): MLP(
            (0): Linear(in_features=384, out_features=1536, bias=True)
            (1): GELU(approximate='none')
            (2): Dropout(p=0.0, inplace=False)
            (3): Linear(in_features=1536, out_features=384, bias=True)
            (4): Dropout(p=0.0, inplace=False)
          )
        )
        (4): SwinTransformerBlock(
          (norm1): LayerNorm((384,), eps=1e-05, elementwise_affine=True)
          (attn): ShiftedWindowAttention(
            (qkv): Linear(in_features=384, out_features=1152, bias=True)
            (proj): Linear(in_features=384, out_features=384, bias=True)
          )
          (stochastic_depth): StochasticDepth(p=0.07272727272727274, mode=row)
          (norm2): LayerNorm((384,), eps=1e-05, elementwise_affine=True)
          (mlp): MLP(
            (0): Linear(in_features=384, out_features=1536, bias=True)
            (1): GELU(approximate='none')
            (2): Dropout(p=0.0, inplace=False)
            (3): Linear(in_features=1536, out_features=384, bias=True)
            (4): Dropout(p=0.0, inplace=False)
          )
        )
        (5): SwinTransformerBlock(
          (norm1): LayerNorm((384,), eps=1e-05, elementwise_affine=True)
          (attn): ShiftedWindowAttention(
            (qkv): Linear(in_features=384, out_features=1152, bias=True)
            (proj): Linear(in_features=384, out_features=384, bias=True)
          )
          (stochastic_depth): StochasticDepth(p=0.08181818181818182, mode=row)
          (norm2): LayerNorm((384,), eps=1e-05, elementwise_affine=True)
          (mlp): MLP(
            (0): Linear(in_features=384, out_features=1536, bias=True)
            (1): GELU(approximate='none')
            (2): Dropout(p=0.0, inplace=False)
            (3): Linear(in_features=1536, out_features=384, bias=True)
            (4): Dropout(p=0.0, inplace=False)
          )
        )
      )
      (5): PatchMerging(
        (reduction): Linear(in_features=1536, out_features=768, bias=False)
        (norm): LayerNorm((1536,), eps=1e-05, elementwise_affine=True)
        (norm_skip): LayerNorm((1536,), eps=1e-05, elementwise_affine=True)
      )
      (6): SkippableSequentialBlocks(
        (0): SwinTransformerBlock(
          (norm1): LayerNorm((768,), eps=1e-05, elementwise_affine=True)
          (attn): ShiftedWindowAttention(
            (qkv): Linear(in_features=768, out_features=2304, bias=True)
            (proj): Linear(in_features=768, out_features=768, bias=True)
          )
          (stochastic_depth): StochasticDepth(p=0.09090909090909091, mode=row)
          (norm2): LayerNorm((768,), eps=1e-05, elementwise_affine=True)
          (mlp): MLP(
            (0): Linear(in_features=768, out_features=3072, bias=True)
            (1): GELU(approximate='none')
            (2): Dropout(p=0.0, inplace=False)
            (3): Linear(in_features=3072, out_features=768, bias=True)
            (4): Dropout(p=0.0, inplace=False)
          )
          (norm1_skip): LayerNorm((768,), eps=1e-05, elementwise_affine=True)
          (norm2_skip): LayerNorm((768,), eps=1e-05, elementwise_affine=True)
        )
        (1): SwinTransformerBlock(
          (norm1): LayerNorm((768,), eps=1e-05, elementwise_affine=True)
          (attn): ShiftedWindowAttention(
            (qkv): Linear(in_features=768, out_features=2304, bias=True)
            (proj): Linear(in_features=768, out_features=768, bias=True)
          )
          (stochastic_depth): StochasticDepth(p=0.1, mode=row)
          (norm2): LayerNorm((768,), eps=1e-05, elementwise_affine=True)
          (mlp): MLP(
            (0): Linear(in_features=768, out_features=3072, bias=True)
            (1): GELU(approximate='none')
            (2): Dropout(p=0.0, inplace=False)
            (3): Linear(in_features=3072, out_features=768, bias=True)
            (4): Dropout(p=0.0, inplace=False)
          )
        )
      )
    )
    (norm): LayerNorm((768,), eps=1e-05, elementwise_affine=True)
    (permute): Permute()
  )
  (decoder): RTDETRTransformer(
    (input_proj): ModuleList(
      (0-2): 3 x Sequential(
        (conv): Conv2d(256, 256, kernel_size=(1, 1), stride=(1, 1), bias=False)
        (norm): BatchNorm2d(256, eps=1e-05, momentum=0.1, affine=True, track_running_stats=True)
      )
    )
    (decoder): TransformerDecoder(
      (layers): ModuleList(
        (0-5): 6 x TransformerDecoderLayer(
          (self_attn): MultiheadAttention(
            (out_proj): NonDynamicallyQuantizableLinear(in_features=256, out_features=256, bias=True)
          )
          (dropout1): Dropout(p=0.0, inplace=False)
          (norm1): LayerNorm((256,), eps=1e-05, elementwise_affine=True)
          (cross_attn): MSDeformableAttention(
            (sampling_offsets): Linear(in_features=256, out_features=192, bias=True)
            (attention_weights): Linear(in_features=256, out_features=96, bias=True)
            (value_proj): Linear(in_features=256, out_features=256, bias=True)
            (output_proj): Linear(in_features=256, out_features=256, bias=True)
          )
          (dropout2): Dropout(p=0.0, inplace=False)
          (norm2): LayerNorm((256,), eps=1e-05, elementwise_affine=True)
          (linear1): Linear(in_features=256, out_features=1024, bias=True)
          (dropout3): Dropout(p=0.0, inplace=False)
          (linear2): Linear(in_features=1024, out_features=256, bias=True)
          (dropout4): Dropout(p=0.0, inplace=False)
          (norm3): LayerNorm((256,), eps=1e-05, elementwise_affine=True)
        )
      )
    )
    (denoising_class_embed): Embedding(81, 256, padding_idx=80)
    (query_pos_head): MLP(
      (layers): ModuleList(
        (0): Linear(in_features=4, out_features=512, bias=True)
        (1): Linear(in_features=512, out_features=256, bias=True)
      )
      (act): ReLU(inplace=True)
    )
    (enc_output): Sequential(
      (0): Linear(in_features=256, out_features=256, bias=True)
      (1): LayerNorm((256,), eps=1e-05, elementwise_affine=True)
    )
    (enc_score_head): Linear(in_features=256, out_features=80, bias=True)
    (enc_bbox_head): MLP(
      (layers): ModuleList(
        (0-1): 2 x Linear(in_features=256, out_features=256, bias=True)
        (2): Linear(in_features=256, out_features=4, bias=True)
      )
      (act): ReLU(inplace=True)
    )
    (dec_score_head): ModuleList(
      (0-5): 6 x Linear(in_features=256, out_features=80, bias=True)
    )
    (dec_bbox_head): ModuleList(
      (0-5): 6 x MLP(
        (layers): ModuleList(
          (0-1): 2 x Linear(in_features=256, out_features=256, bias=True)
          (2): Linear(in_features=256, out_features=4, bias=True)
        )
        (act): ReLU(inplace=True)
      )
    )
  )
  (encoder): HybridEncoder(
    (input_proj): ModuleList(
      (0): Sequential(
        (0): Conv2d(512, 256, kernel_size=(1, 1), stride=(1, 1), bias=False)
        (1): BatchNorm2d(256, eps=1e-05, momentum=0.1, affine=True, track_running_stats=True)
      )
      (1): Sequential(
        (0): Conv2d(1024, 256, kernel_size=(1, 1), stride=(1, 1), bias=False)
        (1): BatchNorm2d(256, eps=1e-05, momentum=0.1, affine=True, track_running_stats=True)
      )
      (2): Sequential(
        (0): Conv2d(2048, 256, kernel_size=(1, 1), stride=(1, 1), bias=False)
        (1): BatchNorm2d(256, eps=1e-05, momentum=0.1, affine=True, track_running_stats=True)
      )
    )
    (input_proj_swinT): ModuleList(
      (0): Sequential(
        (0): Conv2d(192, 256, kernel_size=(1, 1), stride=(1, 1), bias=False)
        (1): BatchNorm2d(256, eps=1e-05, momentum=0.1, affine=True, track_running_stats=True)
      )
      (1): Sequential(
        (0): Conv2d(384, 256, kernel_size=(1, 1), stride=(1, 1), bias=False)
        (1): BatchNorm2d(256, eps=1e-05, momentum=0.1, affine=True, track_running_stats=True)
      )
      (2): Sequential(
        (0): Conv2d(768, 256, kernel_size=(1, 1), stride=(1, 1), bias=False)
        (1): BatchNorm2d(256, eps=1e-05, momentum=0.1, affine=True, track_running_stats=True)
      )
    )
    (encoder): ModuleList(
      (0): TransformerEncoder(
        (layers): ModuleList(
          (0): TransformerEncoderLayer(
            (self_attn): MultiheadAttention(
              (out_proj): NonDynamicallyQuantizableLinear(in_features=256, out_features=256, bias=True)
            )
            (linear1): Linear(in_features=256, out_features=1024, bias=True)
            (dropout): Dropout(p=0.0, inplace=False)
            (linear2): Linear(in_features=1024, out_features=256, bias=True)
            (norm1): LayerNorm((256,), eps=1e-05, elementwise_affine=True)
            (norm2): LayerNorm((256,), eps=1e-05, elementwise_affine=True)
            (dropout1): Dropout(p=0.0, inplace=False)
            (dropout2): Dropout(p=0.0, inplace=False)
            (activation): GELU(approximate='none')
          )
        )
      )
    )
    (lateral_convs): ModuleList(
      (0-1): 2 x ConvNormLayer(
        (conv): Conv2d(256, 256, kernel_size=(1, 1), stride=(1, 1), bias=False)
        (norm): BatchNorm2d(256, eps=1e-05, momentum=0.1, affine=True, track_running_stats=True)
        (act): SiLU(inplace=True)
      )
    )
    (fpn_blocks): ModuleList(
      (0-1): 2 x CSPRepLayer(
        (conv1): ConvNormLayer(
          (conv): Conv2d(512, 256, kernel_size=(1, 1), stride=(1, 1), bias=False)
          (norm): BatchNorm2d(256, eps=1e-05, momentum=0.1, affine=True, track_running_stats=True)
          (act): SiLU(inplace=True)
        )
        (conv2): ConvNormLayer(
          (conv): Conv2d(512, 256, kernel_size=(1, 1), stride=(1, 1), bias=False)
          (norm): BatchNorm2d(256, eps=1e-05, momentum=0.1, affine=True, track_running_stats=True)
          (act): SiLU(inplace=True)
        )
        (bottlenecks): Sequential(
          (0): RepVggBlock(
            (conv1): ConvNormLayer(
              (conv): Conv2d(256, 256, kernel_size=(3, 3), stride=(1, 1), padding=(1, 1), bias=False)
              (norm): BatchNorm2d(256, eps=1e-05, momentum=0.1, affine=True, track_running_stats=True)
              (act): Identity()
            )
            (conv2): ConvNormLayer(
              (conv): Conv2d(256, 256, kernel_size=(1, 1), stride=(1, 1), bias=False)
              (norm): BatchNorm2d(256, eps=1e-05, momentum=0.1, affine=True, track_running_stats=True)
              (act): Identity()
            )
            (act): SiLU(inplace=True)
          )
          (1): RepVggBlock(
            (conv1): ConvNormLayer(
              (conv): Conv2d(256, 256, kernel_size=(3, 3), stride=(1, 1), padding=(1, 1), bias=False)
              (norm): BatchNorm2d(256, eps=1e-05, momentum=0.1, affine=True, track_running_stats=True)
              (act): Identity()
            )
            (conv2): ConvNormLayer(
              (conv): Conv2d(256, 256, kernel_size=(1, 1), stride=(1, 1), bias=False)
              (norm): BatchNorm2d(256, eps=1e-05, momentum=0.1, affine=True, track_running_stats=True)
              (act): Identity()
            )
            (act): SiLU(inplace=True)
          )
          (2): RepVggBlock(
            (conv1): ConvNormLayer(
              (conv): Conv2d(256, 256, kernel_size=(3, 3), stride=(1, 1), padding=(1, 1), bias=False)
              (norm): BatchNorm2d(256, eps=1e-05, momentum=0.1, affine=True, track_running_stats=True)
              (act): Identity()
            )
            (conv2): ConvNormLayer(
              (conv): Conv2d(256, 256, kernel_size=(1, 1), stride=(1, 1), bias=False)
              (norm): BatchNorm2d(256, eps=1e-05, momentum=0.1, affine=True, track_running_stats=True)
              (act): Identity()
            )
            (act): SiLU(inplace=True)
          )
        )
        (conv3): Identity()
      )
    )
    (downsample_convs): ModuleList(
      (0-1): 2 x ConvNormLayer(
        (conv): Conv2d(256, 256, kernel_size=(3, 3), stride=(2, 2), padding=(1, 1), bias=False)
        (norm): BatchNorm2d(256, eps=1e-05, momentum=0.1, affine=True, track_running_stats=True)
        (act): SiLU(inplace=True)
      )
    )
    (pan_blocks): ModuleList(
      (0-1): 2 x CSPRepLayer(
        (conv1): ConvNormLayer(
          (conv): Conv2d(512, 256, kernel_size=(1, 1), stride=(1, 1), bias=False)
          (norm): BatchNorm2d(256, eps=1e-05, momentum=0.1, affine=True, track_running_stats=True)
          (act): SiLU(inplace=True)
        )
        (conv2): ConvNormLayer(
          (conv): Conv2d(512, 256, kernel_size=(1, 1), stride=(1, 1), bias=False)
          (norm): BatchNorm2d(256, eps=1e-05, momentum=0.1, affine=True, track_running_stats=True)
          (act): SiLU(inplace=True)
        )
        (bottlenecks): Sequential(
          (0): RepVggBlock(
            (conv1): ConvNormLayer(
              (conv): Conv2d(256, 256, kernel_size=(3, 3), stride=(1, 1), padding=(1, 1), bias=False)
              (norm): BatchNorm2d(256, eps=1e-05, momentum=0.1, affine=True, track_running_stats=True)
              (act): Identity()
            )
            (conv2): ConvNormLayer(
              (conv): Conv2d(256, 256, kernel_size=(1, 1), stride=(1, 1), bias=False)
              (norm): BatchNorm2d(256, eps=1e-05, momentum=0.1, affine=True, track_running_stats=True)
              (act): Identity()
            )
            (act): SiLU(inplace=True)
          )
          (1): RepVggBlock(
            (conv1): ConvNormLayer(
              (conv): Conv2d(256, 256, kernel_size=(3, 3), stride=(1, 1), padding=(1, 1), bias=False)
              (norm): BatchNorm2d(256, eps=1e-05, momentum=0.1, affine=True, track_running_stats=True)
              (act): Identity()
            )
            (conv2): ConvNormLayer(
              (conv): Conv2d(256, 256, kernel_size=(1, 1), stride=(1, 1), bias=False)
              (norm): BatchNorm2d(256, eps=1e-05, momentum=0.1, affine=True, track_running_stats=True)
              (act): Identity()
            )
            (act): SiLU(inplace=True)
          )
          (2): RepVggBlock(
            (conv1): ConvNormLayer(
              (conv): Conv2d(256, 256, kernel_size=(3, 3), stride=(1, 1), padding=(1, 1), bias=False)
              (norm): BatchNorm2d(256, eps=1e-05, momentum=0.1, affine=True, track_running_stats=True)
              (act): Identity()
            )
            (conv2): ConvNormLayer(
              (conv): Conv2d(256, 256, kernel_size=(1, 1), stride=(1, 1), bias=False)
              (norm): BatchNorm2d(256, eps=1e-05, momentum=0.1, affine=True, track_running_stats=True)
              (act): Identity()
            )
            (act): SiLU(inplace=True)
          )
        )
        (conv3): Identity()
      )
    )
  )
)
backbone.pre.0.weight
backbone.pre.0.bias
backbone.pre.2.weight
backbone.pre.2.bias
backbone.features.0.0.norm1.weight
backbone.features.0.0.norm1.bias
backbone.features.0.0.attn.relative_position_bias_table
…
